…
art_epoch=0, eval=False, num_workers=0, world_size=1, dist_url='env://', distributed=False)
MSCMR(
  (UNet): Unet(
    (Pad): ConstantPad2d(padding=(92, 92, 92, 92), value=0)
    (Maxpool1): MaxPool2d(kernel_size=2, stride=2, padding=0, dilation=1, ceil_mode=False)
    (Maxpool2): MaxPool2d(kernel_size=2, stride=2, padding=0, dilation=1, ceil_mode=False)
    (Maxpool3): MaxPool2d(kernel_size=2, stride=2, padding=0, dilation=1, ceil_mode=False)
    (Maxpool4): MaxPool2d(kernel_size=2, stride=2, padding=0, dilation=1, ceil_mode=False)
    (Conv1): conv_block(
      (conv): Sequential(
        (0): Conv2d(1, 64, kernel_size=(3, 3), stride=(1, 1))
        (1): BatchNorm2d(64, eps=1e-05, momentum=0.1, affine=True, track_running_stats=True)
        (2): LeakyReLU(negative_slope=0.01)
        (3): Dropout(p=0.025, inplace=False)
        (4): Conv2d(64, 64, kernel_size=(3, 3), stride=(1, 1))
        (5): BatchNorm2d(64, eps=0.001, momentum=0.01, affine=True, track_running_stats=True)
        (6): LeakyReLU(negative_slope=0.01)
      )
    )
    (Conv2): conv_block(
      (conv): Sequential(
        (0): Conv2d(64, 128, kernel_size=(3, 3), stride=(1, 1))
        (1): BatchNorm2d(128, eps=1e-05, momentum=0.1, affine=True, track_running_stats=True)
        (2): LeakyReLU(negative_slope=0.01)
        (3): Dropout(p=0.05, inplace=False)
        (4): Conv2d(128, 128, kernel_size=(3, 3), stride=(1, 1))
        (5): BatchNorm2d(128, eps=0.001, momentum=0.01, affine=True, track_running_stats=True)
        (6): LeakyReLU(negative_slope=0.01)
      )
    )
    (Conv3): conv_block(
      (conv): Sequential(
        (0): Conv2d(128, 256, kernel_size=(3, 3), stride=(1, 1))
        (1): BatchNorm2d(256, eps=1e-05, momentum=0.1, affine=True, track_running_stats=True)
        (2): LeakyReLU(negative_slope=0.01)
        (3): Dropout(p=0.1, inplace=False)
        (4): Conv2d(256, 256, kernel_size=(3, 3), stride=(1, 1))
        (5): BatchNorm2d(256, eps=0.001, momentum=0.01, affine=True, track_running_stats=True)
        (6): LeakyReLU(negative_slope=0.01)
      )
    )
    (Conv4): conv_block(
      (conv): Sequential(
        (0): Conv2d(256, 512, kernel_size=(3, 3), stride=(1, 1))
        (1): BatchNorm2d(512, eps=1e-05, momentum=0.1, affine=True, track_running_stats=True)
        (2): LeakyReLU(negative_slope=0.01)
        (3): Dropout(p=0.15, inplace=False)
        (4): Conv2d(512, 512, kernel_size=(3, 3), stride=(1, 1))
        (5): BatchNorm2d(512, eps=0.001, momentum=0.01, affine=True, track_running_stats=True)
        (6): LeakyReLU(negative_slope=0.01)
      )
    )
    (Conv5): conv_block(
      (conv): Sequential(
        (0): Conv2d(512, 1024, kernel_size=(3, 3), stride=(1, 1))
        (1): BatchNorm2d(1024, eps=1e-05, momentum=0.1, affine=True, track_running_stats=True)
        (2): LeakyReLU(negative_slope=0.01)
        (3): Dropout(p=0.25, inplace=False)
        (4): Conv2d(1024, 1024, kernel_size=(3, 3), stride=(1, 1))
        (5): BatchNorm2d(1024, eps=0.001, momentum=0.01, affine=True, track_running_stats=True)
        (6): LeakyReLU(negative_slope=0.01)
      )
    )
    (Up4): up_conv(
      (up): Sequential(
        (0): Upsample(scale_factor=2.0, mode='nearest')
        (1): Conv2d(1024, 4, kernel_size=(3, 3), stride=(1, 1), padding=(1, 1))
        (2): BatchNorm2d(4, eps=0.001, momentum=0.01, affine=True, track_running_stats=True)
        (3): LeakyReLU(negative_slope=0.01)
      )
    )
    (Up_conv4): conv_block(
      (conv): Sequential(
        (0): Conv2d(516, 512, kernel_size=(3, 3), stride=(1, 1))
        (1): BatchNorm2d(512, eps=1e-05, momentum=0.1, affine=True, track_running_stats=True)
        (2): LeakyReLU(negative_slope=0.01)
        (3): Dropout(p=0, inplace=False)
        (4): Conv2d(512, 512, kernel_size=(3, 3), stride=(1, 1))
        (5): BatchNorm2d(512, eps=0.001, momentum=0.01, affine=True, track_running_stats=True)
        (6): LeakyReLU(negative_slope=0.01)
      )
    )
    (Up3): up_conv(
      (up): Sequential(
        (0): Upsample(scale_factor=2.0, mode='nearest')
        (1): Conv2d(512, 4, kernel_size=(3, 3), stride=(1, 1), padding=(1, 1))
        (2): BatchNorm2d(4, eps=0.001, momentum=0.01, affine=True, track_running_stats=True)
        (3): LeakyReLU(negative_slope=0.01)
      )
    )
    (Up_conv3): conv_block(
      (conv): Sequential(
        (0): Conv2d(260, 256, kernel_size=(3, 3), stride=(1, 1))
        (1): BatchNorm2d(256, eps=1e-05, momentum=0.1, affine=True, track_running_stats=True)
        (2): LeakyReLU(negative_slope=0.01)
        (3): Dropout(p=0, inplace=False)
        (4): Conv2d(256, 256, kernel_size=(3, 3), stride=(1, 1))
        (5): BatchNorm2d(256, eps=0.001, momentum=0.01, affine=True, track_running_stats=True)
        (6): LeakyReLU(negative_slope=0.01)
      )
    )
    (Up2): up_conv(
      (up): Sequential(
        (0): Upsample(scale_factor=2.0, mode='nearest')
        (1): Conv2d(256, 128, kernel_size=(3, 3), stride=(1, 1), padding=(1, 1))
        (2): BatchNorm2d(128, eps=0.001, momentum=0.01, affine=True, track_running_stats=True)
        (3): LeakyReLU(negative_slope=0.01)
      )
    )
    (Up_conv2): conv_block(
      (conv): Sequential(
        (0): Conv2d(256, 128, kernel_size=(3, 3), stride=(1, 1))
        (1): BatchNorm2d(128, eps=1e-05, momentum=0.1, affine=True, track_running_stats=True)
        (2): LeakyReLU(negative_slope=0.01)
        (3): Dropout(p=0, inplace=False)
        (4): Conv2d(128, 128, kernel_size=(3, 3), stride=(1, 1))
        (5): BatchNorm2d(128, eps=0.001, momentum=0.01, affine=True, track_running_stats=True)
        (6): LeakyReLU(negative_slope=0.01)
      )
    )
    (Up1): up_conv(
      (up): Sequential(
        (0): Upsample(scale_factor=2.0, mode='nearest')
        (1): Conv2d(128, 64, kernel_size=(3, 3), stride=(1, 1), padding=(1, 1))
        (2): BatchNorm2d(64, eps=0.001, momentum=0.01, affine=True, track_running_stats=True)
        (3): LeakyReLU(negative_slope=0.01)
      )
    )
    (Up_conv1): conv_block(
      (conv): Sequential(
        (0): Conv2d(128, 64, kernel_size=(3, 3), stride=(1, 1))
        (1): BatchNorm2d(64, eps=1e-05, momentum=0.1, affine=True, track_running_stats=True)
        (2): LeakyReLU(negative_slope=0.01)
        (3): Dropout(p=0, inplace=False)
        (4): Conv2d(64, 64, kernel_size=(3, 3), stride=(1, 1))
        (5): BatchNorm2d(64, eps=0.001, momentum=0.01, affine=True, track_running_stats=True)
        (6): LeakyReLU(negative_slope=0.01)
      )
    )
    (Conv): Conv2d(64, 4, kernel_size=(1, 1), stride=(1, 1))
    (Norm): BatchNorm2d(4, eps=0.001, momentum=0.01, affine=True, track_running_stats=True)
    (active): Softmax(dim=1)
  )
  (prototype): Linear(in_features=44944, out_features=128, bias=False)
  (Norm1d): BatchNorm1d(5, eps=0.001, momentum=0.01, affine=True, track_running_stats=True)
  (active): Softmax(dim=-1)
)
number of params: 31512238
Building training dataset...
Building validation dataset...
Number of validation images: 75
Start training
Q loss: tensor(4.9300, device='cuda:0', grad_fn=<NegBackward0>)
Positive loss: 0.8957915306091309
contrastive loss: 1.6415423154830933
exist loss: 0.0032046751584857702
…
